Multistep/parameters.pt (torch_old, 3548 bytes, 6 tensors)

rnn.weight_ih_l0 f4 [40, 1]
00000000: 5d81 4441 e440 28c1 9227 2841 97b1 5dbf
00000010: 4d40 fc40 f52d 2941 4545 5841 331c 9e3f
00000020: 4aa7 0641 3803 0a40 1029 45c0 bd3a 7840
00000030: fd5e 8fc0 d584 9cbf f09f 2f40 7ba1 e940
00000040: 6ef7 d640 9c79 69c1 1806 40c0 0a60 cfbf
00000050: 20d5 a340 9c15 2340 7717 06c2 da4f 9f3d
00000060: b6ab 6ac0 6cff ca40 4324 4c40 d1c4 b1c0
00000070: 71dc 18c1 6709 17c0 023d 1ec1 f498 6f40
00000080: f6f9 a741 e96f d7c1 9fe2 5c42 18b5 7b40
00000090: 3316 0541 1966 30c1 10d1 1041 3326 f4c0
12.281583 -10.515842 10.509661 -0.86599106 7.882849 10.57372 13.5169115 1.2352356
8.415842 2.1564465 -3.0806313 3.878585 -4.4803452 -1.2228037 2.7441368 7.300962
6.717704 -14.59219 -3.000372 -1.6201184 5.119766 2.548194 -33.522915 0.07778902
-3.6667304 6.3436794 3.1897132 -5.5552754 -9.553819 -2.3599489 -9.8898945 3.7437105
20.997051 -26.929644 55.22131 3.932928 8.31792 -11.024926 9.051041 -7.629663

rnn.weight_hh_l0 f4 [40, 10]
00000000: 6191 6ec0 1a7c 89bf 5d56 0ec0 9580 0c3f
00000010: 2b2a 61be c0da c63f 3f0a 4b41 d300 cc40
00000020: 03fc 14c0 9a44 2341 c6f4 0041 2aa3 18c0
00000030: fdeb 3f3f f64e 5e40 9987 1141 a204 90c0
00000040: b8e8 39c1 0bb0 e740 2c51 8ebe 11d9 54c1
00000050: 469c 6dc0 dfb5 d9bd e2ab 6b40 3d0e 2740
00000060: a9b4 933f 13f6 09c0 d9f0 abbf b86a b840
00000070: 4cea 34c0 7769 a63f 0339 2f3f 9923 0f3f
00000080: 4b5d 8abf 62fe 3040 7e1f bdbe fcc1 9a3f
00000090: ab4d 863f 837a 643e 046e 3c3c b77c 0b40
000000a0: b916 2041 6032 62c1 238f 81c0 1f36 2c3e
000000b0: a684 79c1 1a36 99c0 4656 9740 06f8 29bf
000000c0: 5b1b 5ec1 faa1 9841 d17c 3bbf 4e76 633f
000000d0: 2ae6 97bf 4a83 283f df88 47c0 abfe 60c0
000000e0: 9ac3 1440 5a69 203f 556b f3bf 4074 3b40
000000f0: eb81 3540 aa4c 25c0 eb60 1341 003e 6140
00000100: dc2c a840 3c19 ffbf cd70 c940 5522 4541
00000110: 908d 18c1 ed53 9b3f 9c68 9fc0 a355 cfc0
00000120: d799 c1bf 553f 95c0 e696 ecbf 5a0d 2d40
00000130: 3a08 2241 ed2e 3240 5320 cabf d444 05c0
00000140: 4b50 4240 18c3 353f 4171 c0be 9a1b 2fbf
00000150: 4768 c6c0 89fd 5641 1ac1 3841 dd72 37c1
00000160: dc40 6fc0 0b61 1440 be3e fa40 60fe a1c0
00000170: 4714 3d40 2d78 b241 4529 6440 1128 a1c0
00000180: bd70 92c0 8391 8ec1 c310 d140 fcda ad3f
00000190: 1f10 4a41 4ac7 5240 11fc 0841 ed5e 5340
000001a0: 6ff0 12c0 7680 013f f26b 34c0 18ae 4140
000001b0: 4219 36c0 2463 cc3e 3409 ec40 22e7 09c1
000001c0: a5cf 8bbf 302c 4b41 d247 8e40 e02d 7140
000001d0: 01e0 2b41 429a c43d 8ede 5dbf 1c94 9041
000001e0: 5032 3cc1 b4b2 a540 4d99 0fc0 6556 2bc2
000001f0: 8d93 3fc0 2788 0d40 c67a 4c40 c320 2341
00000200: 363b b0c0 05fb 0ac1 7a1b bf3f 1753 863e
00000210: 68d2 8ebf a222 2c40 9646 68bf c095 683f
00000220: 1f03 423f c7ef 16be aec4 87bc fa06 2d40
00000230: e846 c13f 10d9 01c0 c23a 38c0 3e9a 2a41
00000240: 32be c9be 0ab1 0d40 2cd5 eac0 2cd7 35c1
00000250: ecaf 04c1 58e2 2f40 ab19 c1c0 6264 9ec0
00000260: 8e1d d2c0 8751 ca40 db43 fec0 4122 6740
00000270: 0765 91be 30d9 d140 6cca 5141 d068 2740
00000280: df45 a4c0 c546 6dc0 fe5a 6abf 0409 07c2
00000290: 53a8 0a3f 1530 7fbe a8dd 9440 2147 cb40
000002a0: 3fc6 b2c0 1354 8ec1 c9ac a840 f04f 1f40
000002b0: e7c3 39c0 0dd1 523d 3b3d 46c0 e45e 21bf
000002c0: 99b4 88c1 b0a2 83c1 86a5 09c1 af66 19c1
000002d0: 4dc2 65c0 899d d040 c919 8640 61d8 6541
000002e0: 35c4 3e40 f5ab 5441 7362 a6bc cd86 4f40
000002f0: 4304 c6c0 08fb 23c1 7f90 7740 ae08 5140
00000300: dff4 1240 5e97 3041 cef3 1e41 32f4 c940
00000310: 5257 653f 46d1 7740 37e0 9fc1 bf35 bd40
00000320: 9f91 c5c0 c672 e6bf 0934 6140 34aa 8741
00000330: 95ab ffbf a07f e6bf 0a21 a640 e663 85c0
00000340: a3e8 b5c0 eb0f 8a40 d7e2 68bf 219d 55c1
00000350: 66d0 9ac0 710e 1440 439a 7740 a9e5 1441
00000360: 00a9 34c1 394f 9841 44c5 43c1 dc1d b1bf
00000370: 44ae 1940 d6b4 9dbf e435 66be d0b7 c9be
00000380: 7db0 963f 37f3 0fc0 e96e 423f 4bb3 08c0
00000390: a7f8 89c0 a98f 99bf 5b17 213f a03f 823e
000003a0: d8ce 28bf 0cb9 c73f 0796 1bbf 1214 e83e
000003b0: d771 1c3f e8e2 ae3d 87fc 073e 7753 ac3f
000003c0: 989a a0be 3c85 0340 66b0 17c0 8745 bfbf
000003d0: 7a2c d3bf 27aa 87bf 94ea 44c0 a84f fabf
000003e0: fada 723f fc04 9ac0 7038 59c0 7873 1240
000003f0: 2655 8440 091d 10c0 879f 5ebf cf5f e3bf
-3.7276232 -1.0740998 -2.2240212 0.548837 -0.21988742 1.5535507 12.6900015 6.3751006
-2.3278816 10.204248 8.059759 -2.3849587 0.74969465 3.4735694 9.095605 -4.5005655
-11.619316 7.2402396 -0.27796304 -13.302995 -3.7126632 -0.10630392 3.682366 2.610244
1.1539508 -2.1556442 -1.3432876 5.763027 -2.8268003 1.3000935 0.6844637 0.5591369
-1.0809721 2.7655263 -0.3693809 1.2090449 1.0492452 0.2231236 0.011500839 2.179487
10.005548 -14.137299 -4.0487227 0.1681752 -15.594885 -4.787854 4.7292814 -0.6639408
-13.881679 19.07909 -0.7323733 0.88852394 -1.1867115 0.6582533 -3.117729 -3.5155437
2.3244386 0.62660754 -1.901713 2.9289703 2.8360546 -2.5828042 9.211162 3.5194092
5.255476 -1.9929576 6.2950196 12.320882 -9.534561 1.2134987 -4.9815197 -6.4792037
-1.5125073 -4.663981 -1.848355 2.70394 10.127008 2.7841141 -1.5791115 -2.082326
3.0361507 0.71000814 -0.37586406 -0.6840149 -6.200229 13.436898 11.547144 -11.465543
-3.7383337 2.318423 7.820159 -5.0623016 2.9543626 22.30868 3.565019 -5.036141
-4.576262 -17.82105 6.533296 1.3582454 12.628936 3.2934136 8.56154 3.3026688
-2.295925 0.5058664 -2.8190885 3.0262508 -2.8452916 0.39919388 7.3761234 -8.618929
-1.0922743 12.698288 4.446267 3.768425 10.742188 0.09599735 -0.86667717 18.072319
-11.762283 5.1780643 -2.2437317 -42.83437 -2.9933808 2.211435 3.1949935 10.195498
-5.507228 -8.686284 1.493026 0.26235268 -1.1157961 2.6896138 -0.90732706 0.908535
0.7578601 -0.14739905 -0.016573276 2.7035508 1.5099764 -2.0288734 -2.8785863 10.662657
-0.3940292 2.2139306 -7.338522 -11.365032 -8.29295 2.74819 -6.0343833 -4.9497538
-6.5661077 6.322452 -7.945783 3.6114657 -0.2839739 6.557762 13.111919 2.6157722
-5.133529 -3.7074444 -0.91545093 -33.758804 0.5416309 -0.24920686 4.6520576 6.3524327
-5.5867 -17.791052 5.271092 2.489254 -2.902582 0.051468898 -3.0974872 -0.63035417
-17.088182 -16.454437 -8.602911 -9.587569 -3.5899842 6.5192304 4.1906476 14.365327
2.9807255 13.291982 -0.020310616 3.2426026 -6.18802 -10.248787 3.8681943 3.2661548
2.2961957 11.036955 9.934523 6.311059 0.89586365 3.872148 -19.98448 5.912811
-6.174026 -1.8003776 3.518801 16.958107 -1.9974238 -1.8007698 5.191533 -4.1684446
-5.684648 4.314443 -0.9097113 -13.350862 -4.8379393 2.3133814 3.8687904 9.306069
-11.29126 19.038683 -12.235661 -1.3837237 2.4012613 -1.2320812 -0.22481495 -0.3939805
1.177261 -2.2492197 0.75950485 -2.1359432 -4.311603 -1.1996967 0.6292626 0.25439167
-0.6594062 1.5603347 -0.607758 0.45327812 0.61111206 0.08539373 0.13279925 1.3462971
-0.31367946 2.055007 -2.3701415 -1.4943093 -1.6497948 -1.0598801 -3.0768175 -1.9555559
0.9486538 -4.8131084 -3.3940697 2.2882977 4.135394 -2.2517722 -0.8696217 -1.7763613

rnn.bias_ih_l0 f4 [40]
00000000: 1964 363f 7402 c4bf 5284 1b3e 7e8b 8040
00000010: 837a b0bf 10e6 06be 8922 88bf f797 9cbe
00000020: 7597 debe e687 9c3f c528 d7bf 53ae 4a3f
00000030: ac44 83bf ee64 8c40 4a9d a43f bf6b 513e
00000040: a01c d1bf bde5 1840 78c0 6d3d 57c1 003f
00000050: 760d 2cbc 30d1 edbd 1816 e13e c2f5 2a40
00000060: 25e7 78bf 9620 fbbe e53e 983f c824 533f
00000070: e30b 0f3f 05e6 b8be 6984 c3bf 7c59 9fbf
00000080: 2f9d 0cbf 6f07 f83e 8501 2abf 7558 5040
00000090: 7aca c73e a1b6 c0be 4da8 acbe 871c efbe
0.71246487 -1.5313249 0.15187195 4.017028 -1.3787388 -0.131737 -1.0635539 -0.3058469
-0.43474928 1.2228973 -1.6809317 0.7917225 -1.0255332 4.3873205 1.2860501 0.20451258
-1.6336861 2.389022 0.05804488 0.50295013 -0.010501256 -0.11612165 0.4396217 2.6712499
-0.972277 -0.490483 1.1894194 0.82478 0.5587751 -0.3611299 -1.5274783 -1.2449183
-0.54927343 0.4844317 -0.6640857 3.255399 0.39021665 -0.37639335 -0.33722153 -0.46701452

rnn.bias_hh_l0 f4 [40]
00000000: e88c 883f 44e4 a3bf a0ea 853e 14e5 8040
00000010: 3e0c cdbf 3aa7 10be 4ba4 9ebf cead eebe
00000020: e5fb 04bf 9908 763f e3a9 00c0 8972 2c3f
00000030: 1137 94bf eecb 8e40 d3ec 943f d3fb 5cbe
00000040: 2a42 81bf febd 0140 83c5 72be 3768 003f
00000050: 8fc1 7a3e fbd1 3ebe ce53 073f 4054 1140
00000060: e809 91bf cd13 24bf e73e bf3f 528e bb3e
00000070: 4fa5 c23e fba1 4ebe d43e b1bf 1abe 9abf
00000080: a9a0 e1be 760a ee3e 67a3 6cbf a3a9 4040
00000090: f43b df3d d530 2abf 45af b2be e6a3 77be
1.0668001 -1.2804036 0.26155567 4.0279636 -1.6019361 -0.14126292 -1.2393888 -0.46616977
-0.5194686 0.9610687 -2.010369 0.67362267 -1.1579305 4.4623938 1.1634773 -0.21580438
-1.0098317 2.0272212 -0.23708157 0.5015902 0.24487899 -0.18634789 0.5286225 2.2707672
-1.1331148 -0.64092714 1.4941071 0.3663202 0.38016745 -0.20178978 -1.3847299 -1.2089264
-0.44067886 0.46492356 -0.9243683 3.0103538 0.10900107 -0.6648076 -0.34899345 -0.24183616

fc.weight f4 [10, 10]
00000000: 67e3 17be 85ae 24c0 6173 72bf 087e 29c0
00000010: cbbc bbbf 7bcd 2bbf 656c d33f 2f8b 3740
00000020: 5521 ee3f f01e 0940 3a52 ab3f 44e3 2cc0
00000030: 7f90 5a40 0bf6 4cc0 2d3c 04c0 40c8 64bf
00000040: 3575 13bf 726d a040 2faa e1bc 17ca 6840
00000050: 94ad b93e 75d2 0ec1 5f0b 2f40 0b05 583e
00000060: 9bad bbbd 138f 193f 0864 64c0 cd4b 4340
00000070: 9654 c83e dfb5 283f d09c 65bf f13a cdbf
00000080: 5e4a 453f 2358 833f d8a9 2b40 2cd6 acbe
00000090: 7d5f 9cc0 2810 2640 9b54 c8be a84e 91c0
000000a0: 74fe 8f3f cb1c 5e40 eb58 6d3f 63af 373f
000000b0: bb56 1f40 884d 35bf b708 60c0 1391 97bf
000000c0: 9ade c73f 5254 70c0 a633 6abd 62c6 9140
000000d0: d02a 0c40 39b1 2fc0 4e20 2bbe 462a 36bf
000000e0: 3d8b f0bf 13db 15c0 5913 683f d658 c540
000000f0: d8fe debf 6200 763f ef39 c1be 29a9 0ec0
00000100: 2b30 d7bf 52b6 46bf 8214 75c0 1b9b 05c0
00000110: 86b2 7a3f 1984 52c0 4f7b 10bf f27c c1bf
00000120: ce8d 82c0 3f17 0cbf 69cc 57bf 447c b53d
00000130: 2be3 bac0 0b77 023e 48db 1340 3e2a 4440
00000140: 1f62 2240 7346 3bbc 3489 0bc0 622f 6fc0
00000150: 1b0c 11bf c6ee 273f f4c1 ccbf 90c0 1b40
00000160: a0d3 3f3f 4e4b 2241 6521 b03f b18f 8b3e
00000170: 08cc 5740 c33f 9fc0 7e23 6abf d469 213f
00000180: e7b2 3c40 858f 8140 32c6 eebf aa66 0641
-0.14832841 -2.5731518 -0.94707304 -2.6483173 -1.466699 -0.67110413 1.6517454 2.86787
1.8603922 2.1425133 1.3384469 -2.7013712 3.4150693 -3.2025173 -2.0661728 -0.8936806
-0.5760072 5.01336 -0.02754697 3.6373346 0.36265242 -8.926381 2.735069 0.21095674
-0.09163972 0.5998394 -3.5686054 3.0515015 0.39127034 0.65902513 -0.896924 -1.6033612
0.770666 1.0261272 2.6822414 -0.3375715 -4.8866563 2.594736 -0.3912705 -4.5408516
1.1249528 3.4705074 0.92713803 0.71751994 2.4896686 -0.7082143 -3.500532 -1.1841148
1.5614808 -3.7551465 -0.057178162 4.5554667 2.190113 -2.7451918 -0.16711542 -0.71158254
-1.8792492 -2.3414962 0.9065452 6.167094 -1.7421522 0.96094334 -0.37739512 -2.2290747
-1.6811575 -0.7762195 -3.8293767 -2.087592 0.97928655 -3.2893126 -0.56438154 -1.5116255
-4.07981 -0.5472297 -0.8429628 0.088615924 -5.8402305 0.12740724 2.3102589 3.0650783
2.5372388 -0.011430371 -2.1802492 -3.737267 -0.56659096 0.65598714 -1.599669 2.433628
0.7493229 10.143385 1.3760191 0.27258065 3.371828 -4.9765334 -0.91460407 0.63052106
2.9484193 4.0487695 -1.8654234 8.400064

fc.bias f4 [10]
00000000: 35ce dcbf e39c 14bf bc36 0b3e f258 773f
00000010: 9040 72bf 7d1c 07c0 d906 49c0 0703 27c0
00000020: 7bea 9fbf 5d63 5a3e
-1.7250429 -0.5805189 0.13595098 0.96620095 -0.94629765 -2.1111138 -3.141043 -2.6095598
-1.2493433 0.21326967
